Neural-Network-master/w1.npy (npy, 314128 bytes, 1 tensors)

array f8 [50, 785]
0	0xbfc592fde1494024	-0.16854833126353796
1	0x3f249b5d6be25f0d	0.00015721812628010542
2	0xbf376088d984126b	-0.0003567060571330385
3	0xbf227cdf7339dbd3	-0.00014105060255406465
4	0xbf3084f8755e1b30	-0.0002520662868551902
5	0xbf331071a64eb359	-0.00029089712762236025
6	0xbf2d5810985c724a	-0.00022387697770733162
7	0xbf1ce3ab4a161660	-0.00011020405738378916
8	0xbf134f85106280a1	-7.366418512555702e-05
9	0x3efd0b4db82360fc	2.7698664333581667e-05
10	0xbf0e3b1a13fc531f	-5.766080221128997e-05
11	0x3f2152d310e2d36e	0.00013216806877882785
12	0xbf2ba47b4dc9fb59	-0.00021089558767425456
13	0x3f397ab21d498ce3	0.0003887829637163177
14	0xbf08c96ea7bd62a6	-4.727715437863782e-05
15	0x3f243dfa83d993df	0.0001544349960795046
16	0xbf0e38b168ea2225	-5.7642854803200806e-05
17	0x3f05f4fc99433a13	4.18796145439279e-05
18	0xbf30d137e9da01c4	-0.0002566110141302392
19	0xbf2c3c8ab51ad820	-0.0002154273338896293
20	0x3f2c20e98af8eaa5	0.00021460390915869102
21	0x3f35e5f002021d1e	0.0003341399151470403
22	0xbf21734cba25b45c	-0.00013313590632027777
23	0x3f21fce613970d7e	0.00013723667670549258
24	0x3f319a0efcdd16bd	0.00026858201896505144
25	0x3f327427b3c0d0b8	0.000281581585798617
26	0xbf3367c559a53fdc	-0.0002961022197682775
27	0xbf358e58f4fe8ade	-0.0003289191417882707
28	0xbf2ee17414af2e1f	-0.00023560087205819286
29	0x3f31af0ca0ca5455	0.000269833167103888
30	0xbf32c883b3bc56c0	-0.00028660979636306247
31	0xbf0d83dfee4b3a6c	-5.629565365482679e-05
32	0x3f3569c3f0fa9a2c	0.00032673867915847493
33	0x3efdfcbb85497faf	2.859805711563607e-05
34	0x3f24ddfb89a569dc	0.00015920348671267972
35	0x3f41cb3410e2db66	0.0005430225590064952
36	0x3f5fb5dba549ba6e	0.001935448167525468
37	0x3f7cc2c0dd546b3e	0.007021668793892042
38	0x3f7030993999674f	0.003952597174782315
39	0x3f80e49f9344c036	0.008248564416675302
40	0x3f7d67b7d26f7e41	0.007178991369954314
41	0x3f89ba8520f1cbd7	0.012562789981734141
42	0x3f8af933a0b4c069	0.013170626966342707
43	0x3f844b5898478f2e	0.009909336230471046
44	0x3f8735b5a2b703c9	0.011332911518254012
45	0x3f99c696d1fc9b2e	0.02517161995560995
46	0x3f86a4ba9e76e1fa	0.01105638309569289
47	0x3f89cb7caa9f8def	0.012595151860245372
48	0x3f8eddcffde7246e	0.015071511207582069
49	0x3f7ac3c896d43760	0.006534369994609296
50	0x3f800a2fe70cf683	0.007831930388074731
51	0x3f6580cb2f29967a	0.002624890178867298
52	0x3f53a3320193ff6e	0.001198576769013439
53	0xbf25eda91dbda1eb	-0.0001673001232760507
54	0xbed9389beb085065	-6.013185768445009e-06
55	0xbf34e30ec662f7e7	-0.00031870947567458205
56	0x3f0bba92e169452b	5.288849586249986e-05
57	0xbf30854c2d015147	-0.0002520857788159869
58	0x3f10b49848377016	6.372622924949475e-05
59	0x3f20df0e4c4f1d00	0.00012871789490829372
60	0xbf31f86484d35507	-0.0002742047698352655
61	0x3f229731f4465f02	0.00014183506767716936
62	0x3f2f3c4c3f9cda5c	0.0002383082463041805
63	0x3f67c6fb36e94dee	0.002902498868289297
64	0x3f82a6c132d78e67	0.009107121814799514
65	0x3f847f1a8d9a9045	0.010008056112674643
66	0x3f7de574f0e426b6	0.007298905182560203
67	0x3f8e8162b9974b0d	0.014895221031939987
68	0x3f9bd99b7b8b3bdd	0.027197293677826074
69	0x3fa51e6061977f33	0.04124737922006574
70	0x3fb15fa7a333977e	0.06786582693493234
71	0x3fa6842536e38ddb	0.04397693915396036
72	0x3fa360c58bdd062a	0.037847684214750224
73	0x3f9f157b3780f445	0.030355382216147104
74	0x3f773e90aba74e2e	0.00567490112230788
75	0x3f97bb1373a8e595	0.02317457574301825
76	0x3f9062c688c5a128	0.016001798723125266
77	0x3f8087f4f9d0e295	0.008071817277696606
78	0x3f8d7ac9c46bc05b	0.01439435606650379
79	0x3f9299d770d95296	0.018164983999968763
80	0x3f7cafacd2683dfa	0.007003474317130104
81	0xbf2d09663f9cb9c0	-0.00022153256559804928
82	0xbf0f7590a8d75fa3	-6.000373569364718e-05
83	0xbf1c43d707cbf156	-0.00010782241765733744
84	0xbf2584c210aa7f2e	-0.00016417378386268097
85	0x3f32837942638ec6	0.00028249464447880864
86	0xbf0ae7070e897b8c	-5.131235395049787e-05
87	0x3f3364c8db3fea41	0.0002959242222001814
88	0x3f3d46fc7a0ea82f	0.00044673599227940374
89	0x3f6466c5fd6df691	0.0024904124251737343
90	0xbf4339959d741b98	-0.0005866985838175352
91	0x3f7747428dbd54be	0.005683193183206812
92	0x3f79698ce7ac3653	0.006204176340145989
93	0x3f8ac1a1248478ce	0.013064631392407124
94	0x3fa5e5d39b6dadfd	0.04276906273193146
95	0x3f9fee602e17c914	0.03118276864365395
96	0xbfb1652f0e5a3186	-0.06795019245527642
97	0xbfa593d3837f8094	-0.04214344959450603
98	0x3fb088ef0b1d20f9	0.06458944341023089
99	0x3f95fd8aaf0212dc	0.021474997455260034
100	0x3f7744ee5ccc2306	0.005680972197986694
101	0x3f9c7ba6241115fb	0.02781543345579072
102	0x3f8c1fb9687b9029	0.013732384205873487
103	0xbf8a3c6bf8c781ed	-0.012810557870523953
104	0x3fa74a33c38b869a	0.04548799287819101
105	0x3fb708e4b9b5d9d7	0.08997945341057033
106	0x3fb081d99c9839d1	0.06448135445700777
107	0x3f8749c888ddad14	0.011371199299637293
108	0x3f7959413cabf394	0.00618863566591878
109	0x3f77ea1c60f1fc91	0.005838499883906626
110	0xbf439c89ef773aea	-0.0005984948647269315
111	0xbf30e8954f8be966	-0.00025800366670094275
112	0x3f343af31ecd54a6	0.00030868945650770264
113	0x3f226889d1ba0574	0.00014044458736254715
114	0xbf3469f36603737c	-0.0003114909395785443
115	0x3f253d1666685d3c	0.00016203783452859745
116	0x3f31d2284933da9b	0.0002719257692684136
117	0xbf57642aeefdda10	-0.0014276904366546973
118	0xbf91e19c538b031e	-0.01746219882875543
119	0xbfa6cef88a8820a7	-0.0445478123766077
120	0xbfaeb2f15b7bdbec	-0.059958975236376805
121	0xbfacf64d5ef9c8ea	-0.05656663689014059
122	0x3f71b2696a6796f0	0.004320537357193052
123	0x3f88dafa54d39562	0.012136417115878376
124	0xbf8c572b5335fe97	-0.013838137127776746
125	0x3fa09b800c21e9ff	0.03243637226201556
126	0xbf9bdb9394abc43b	-0.027204805325656372
127	0xbfa066bfe4dfdcff	-0.032033917130258154
128	0xbf7b1bc28675e775	-0.006618270744519585
129	0x3fa1bbe1d1c23a35	0.034636551719007626
130	0x3fa56e17ffc8aa74	0.04185557362901174
131	0x3fab4dd0566f5af5	0.053328047324319096
132	0x3fb64eac8168c1f8	0.08713796767620596
133	0x3fb2209d76dc47fc	0.07081016685359026
134	0x3fb999c8c5160b09	0.10000281154320247
135	0x3fb0b7faa96ebee3	0.06530729900873271
136	0x3fa367b73bf2bd88	0.03790066344060522
137	0x3f96093d4b16bc14	0.021519620616967286
138	0xbf71505f043c9a52	-0.004227038534543386
139	0x3f339d9a2b13cea5	0.00029931081651500053
140	0x3f050a60ccb8bbec	4.013164433690889e-05
141	0xbf310049c27092ce	-0.00025941658754140013
142	0xbf349494ae6e2c97	-0.000314031886255514
143	0xbf28f8eb87e83e85	-0.00019052386410621874
144	0xbf6fa54faaec34ee	-0.003863006211196499
145	0xbfa24af94f888278	-0.03572825523247486
146	0xbf98c8dd3f821202	-0.02420373630640605
147	0xbf834c5c55a4d828	-0.00942299019207489
148	0xbfaddbf6efe25686	-0.05831882169983964
149	0xbf958accb3d099bf	-0.021037291026141377
150	0x3fac28bd92f32b37	0.05499832552739863
151	0x3fb38b8a26b7447c	0.0763479561349118
152	0x3f8a3046fe95bc82	0.012787394184412774
153	0xbf9a480ebd6015dc	-0.025665502842476914
154	0x3fa1e208e1c3a83f	0.03492763286506361
155	0xbf90a9c6c8fd359e	-0.01627264596691235
156	0xbf92746e9d4afacd	-0.018022278166194994
157	0x3f47b10e0558c81a	0.0007230108701092891
158	0x3fba5277a424b6d8	0.10282085187347023
159	0x3faa1b271c412b9f	0.050988409232181946
160	0x3f9b4ff20b4aa6ee	0.02667215532225147
161	0x3fb7036da9a8cc8d	0.08989606277536862
162	0x3fbd1754f2f2cb15	0.11363726550443361
163	0x3fb4a3cf113f2215	0.0806245247941962
164	0x3fb2dfd13c18a942	0.07372768132396337
165	0x3fa5e47ba835425c	0.04275881222077224
166	0x3f8d65e4e012333d	0.014354503715617301
167	0x3f7a55bb41b94575	0.0064294161525862885
168	0x3f13fb63c2343a6c	7.62252462218422e-05
169	0x3f09c2359544d5d2	4.9130687929037735e-05
170	0xbf211a6d5fbb4bda	-0.0001304873002171126
171	0x3f570575ed61de9d	0.0014051105149785255
172	0xbf9ed5076ad3e4ab	-0.030109516043897482
173	0xbfaa932c3845384c	-0.0519040888490144
174	0xbf9b59ae8b604d26	-0.026709296471449616
175	0xbfa7140a7ec9d987	-0.04507477567397005
176	0xbf9960a39a91750c	-0.02478271132382752
177	0x3fa74419f8295798	0.045441447775984745
178	0xbfa95bf7c558bb8e	-0.04952978405014284
179	0xbfa2b65d779fea20	-0.03654758534681357
180	0x3f938c0faadeb2a2	0.019088978580543377
181	0x3f86135327bfcccb	0.010779046679067502
182	0x3fab21f98226e9f1	0.052993580949493586
183	0x3fa517850522b1ad	0.04119506538094995
184	0x3f9483f36b8bbf1b	0.020034602583961374
185	0x3fb1ddf734271d3e	0.06979317687283967
186	0x3faff07450f5f7f9	0.06238139618197631
187	0x3fb60990e27f65cb	0.08608346490600309
188	0x3fa88ba411a908c5	0.04794037547664368
189	0x3fbd18fe484808c4	0.11366261734659405
190	0x3fb6146258157e2e	0.0862485375450823
191	0x3fb329f994b9fe2b	0.07485923653620634
192	0x3fb7b865e76db59e	0.09265744114028115
193	0x3fbc5172daf12bc3	0.11061780781999091
194	0x3fb2bafd59ede6eb	0.07316573567905109
195	0x3f75443cbe712b23	0.005192029267230311
196	0x3f1913fab59c64ce	9.56651469120773e-05
197	0xbf28d8415c92b572	-0.00018955037947902435
198	0xbf270a2e16e64f94	-0.00017577946296098697
199	0xbf424c543a05d138	-0.0005584155333467128
200	0xbfa6fa5f2aab7df7	-0.0448789348208684
201	0xbfb0463f66b833b4	-0.06357189424325221
202	0xbfa63824984502bf	-0.04339708670386732
203	0xbf8a75df6dbd6217	-0.01292013696336007
204	0x3f95232ee0427b6c	0.02064202541134412
205	0x3fba1cbc30be1af1	0.10200096311573838
206	0x3f99cfb32d0de195	0.02520637476433903
207	0x3fa74ae0d0ad6927	0.045493150208772364
208	0xbf8b3e6c9016f23c	-0.013302658221499113
209	0x3f9c5f6089e846e9	0.027707584778972203
210	0xbfa937db3aa8320b	-0.04925427523639677
211	0x3fb76644cdd355a4	0.09140424752270931
212	0x3fb18e7c063213c5	0.06858039046535598
213	0x3fc18ccabafda26a	0.13710912828834704
214	0x3fb43c7de784f72f	0.07904803182915708
215	0x3fb96c7f5d15f2f4	0.09931179068184887
216	0x3fb8bc0e81f048e9	0.09661951706246764
217	0x3fb7983a6d3bd7b7	0.09216656843986369
218	0x3f81d45b9a0112fd	0.00870582164510258
219	0xbfa2ee1db0148bde	-0.036972930664226786
220	0xbf8820878a287b69	-0.011780795005561466
221	0x3fac5e5fee26b855	0.055407522031018765
222	0x3fa61b1963a587c1	0.043175500310794764
223	0x3f46ee2fd9cb9585	0.0006997808119108417
224	0xbf0f0387298a1270	-5.915409309856657e-05
225	0x3f3470aa3f92401e	0.0003118911404920171
226	0x3f0fcc4503e305ba	6.064973466514017e-05
227	0x3f5a52f73c0fd1f8	0.001606694641165805
228	0xbf8b9e6f69f8b753	-0.01348578493260858
229	0xbfac9ffef5175689	-0.05590817205272198
230	0x3f9808a45ecb07c4	0.02347046688624467
231	0x3fa27a9424f144dd	0.0360914511771939
232	0xbf9a18190191a345	-0.025482550354726703
233	0x3fa4a2800f5ea559	0.04030227840059792
234	0x3fa0818dc6cdb2ab	0.03223841716576222
235	0x3f9e28e82dc9e17f	0.029452922625269103
236	0x3fb77f5ba79c1504	0.09178707925828539
237	0x3fb8d25f746a76e8	0.0969600352495622
238	0xbf3ea8bf787f063d	-0.00046782183244084894
239	0xbfa1dfbc6afa6212	-0.034910095270962796
240	0xbfb368fd2cf593d5	-0.0758207545055279
241	0xbfc14014432be57f	-0.13476804046494448
242	0xbfbec6b1683ec8d8	-0.1202193145279894
243	0xbfb4f50efdf14048	-0.0818642969109088
244	0xbfc0f257479c316e	-0.13239565846050588
245	0xbfc6e217306369b6	-0.17877473700248253
246	0xbfcdcb400cf1ff19	-0.23276520378203072
247	0xbfccecd31cf98ee0	-0.2259773150900548
248	0xbfc183d1dc2b5973	-0.13683532000022644
249	0xbfac13eb69d82890	-0.05483947436376113
250	0xbf9739e0f4cd119d	-0.022681727353544557
251	0x3f61edf5513c4d6f	0.0021886626581221684
252	0xbf195442a7c4c422	-9.662300903269573e-05
253	0x3f362b21e1b68d24	0.0003382642477964429
254	0x3efdc3bf0281410b	2.838576634217695e-05
255	0x3f5043ff1d6ac10a	0.0009927741390747835
