Neural-Network-master/w2.npy (npy, 4208 bytes, 1 tensors)

array f8 [10, 51]
0	0xc01a4fd0c811f5de	-6.577944875808923
1	0xbfe8db0cdb5ea910	-0.7767395290914312
2	0xbfea980c4c9ec3e9	-0.8310605522620992
3	0x3fe47c19f912d9ea	0.640149103614758
4	0x3fbb9d8184c4c015	0.10787209979457686
5	0x3fef8d04a31d177c	0.9859641252339624
6	0xbff0a290676e0ec1	-1.0396884956580126
7	0x3ffed7f886af5a02	1.9277272473460703
8	0x3fb2d5d420ea5434	0.07357526591870639
9	0x3fb895e6ae42524e	0.09603730921146189
10	0x3ff9ae31a61c60c7	1.6050278176026482
11	0xbfe0e448e2ee7d5c	-0.5278667862184352
12	0xc00034940db28031	-2.0256730146502595
13	0x3fdfb0a3e89c1adc	0.49515626636313725
14	0xbfe3f2140c3f499a	-0.6233005751803831
15	0xbff4a48618a555c5	-1.290166946671307
16	0xbfed4da5718b9d98	-0.9157283036883426
17	0xbfc97f7a0af125b3	-0.19920278105045738
18	0x3ff142f3202113ca	1.0788451437995144
19	0x40024cc7a8b862a0	2.287490194441787
20	0xbfe4e659adcb6187	-0.6531189340994822
21	0xbfed91c0fbb2f001	-0.9240422168727492
22	0xbfda03ed7e5156b5	-0.40648972831454994
23	0xbfc4727ae6a3eb77	-0.15974365483983963
24	0xbfb0099d5c99bed5	-0.06264670859104211
25	0xbff3adf21d8132ea	-1.2299672272230802
26	0xbfc280a52cf7e5fe	-0.1445509404727971
27	0xbfe0733c06fd6721	-0.5140667091866115
28	0xbff03a2c167be9f8	-1.0142022016794936
29	0xbfe363f71c213bb5	-0.6059527921114439
30	0x3ff8d2b96b23ca69	1.5514463601254198
31	0xbfe411a9a49f7369	-0.6271560874261982
32	0xbffb80f3664e0004	-1.7189821239735474
33	0x3fe3f0bfd369ea53	0.6231383446859787
34	0xbfc0d74942ed55aa	-0.13157001274036634
35	0xbf16f8442330ba19	-8.76227939421232e-05
36	0x3ffbc1d105a84b1d	1.7348184796325719
37	0x40010bd445421902	2.1307759676739133
38	0x40019fc3716fc11f	2.2030094969014864
39	0x3fab376f45e791ce	0.05315730789496663
40	0xbfe907b2ff0a3613	-0.7821898442504697
41	0xbfdf676a2dde7509	-0.4906869361819451
42	0x3ffbacecd4018bb5	1.7297180444227085
43	0xbffb4f7c38ca808e	-1.7069055765532855
44	0xbfdf80609c4b5437	-0.49221053374396057
45	0xc001f16efeb6a7be	-2.242887487363048
46	0xbff5f1f2c358f99f	-1.3715694075359364
47	0x4004be0ea2c470c4	2.592801353092087
48	0xc000a1cabb013633	-2.0789999589676653
49	0xbffc9b3dcdb4b0a4	-1.7879007373221976
50	0xbfff86eb7233de00	-1.9704393826522164
51	0xc006bb53fac03090	-2.841468771925129
52	0x3fd5c3801e629269	0.3400574013451548
53	0x3ffda99e36a2bcc6	1.853910649700809
54	0xc002dfa9d7485782	-2.359210664649198
55	0x3fa4212acdac190c	0.039315545660473544
56	0x3ff53ae9658f712a	1.3268827407073993
57	0x3ff66bb564ad4d09	1.4012960369771597
58	0x3fe312b5cad95f1f	0.5960339509865412
59	0x3ffcefba09cc53e7	1.8085270292988243
60	0xbfc792b670df2b00	-0.1841648150569526
61	0x3ff44bc52b7a19cc	1.268498582679615
62	0xbfca05e7985b9123	-0.2033051961835862
63	0xbfefa5c7abb13cd3	-0.9889868119588762
64	0xbff63be0109cc3c5	-1.3896179818077468
65	0xbfb468dd7bca36d6	-0.07972511551107728
66	0xbffb0c951b231f8b	-1.6905718860670926
67	0x3fc900500f2f110e	0.19532204381369705
68	0x3fac2249934517f1	0.054949092128069206
69	0x3ff87835efc13ce1	1.529348312895131
70	0xbfc0f13f015dbe2a	-0.1323622471495452
71	0xbfb42319941d2881	-0.07866058221876139
72	0x3fe58a3aac9d6d93	0.6731236812005811
73	0xbffcc9872da07690	-1.7992011816308242
74	0xbff6e30887b87839	-1.4304280568681078
75	0x3fb75568103b1161	0.09114694973238137
76	0xbfb74e1e6775641b	-0.09103574777454108
77	0xbff62e1391871f30	-1.3862491306953864
78	0x3fb61251cf43ea24	0.08621703443706302
79	0x3f8abd99b7c5feb9	0.013056946678943292
80	0xbfa5238e45271bcc	-0.04128689378881453
81	0x3fde81be2e2cc844	0.47666887769003474
82	0xbfb3ebd38ea9f46e	-0.0778171752262595
83	0x3fd6615c20d7552f	0.3496923752512257
84	0xbfd301ef159948eb	-0.2969930373120763
85	0x3fe7eabd0839b53b	0.747404590668942
86	0xbfc434385e40154a	-0.15784363367144244
87	0xbff9589ba7c58afe	-1.584132819517151
88	0x3feab2ddb3826f57	0.8343342309994836
89	0xbfebb15444fa0367	-0.8653966281127453
90	0x3f9c57078a30899c	0.027675741013931096
91	0xbff7c479c1f44736	-1.485467679628028
92	0x3ffe842c57487a57	1.90726884932487
93	0xc001217d794ff825	-2.141352603676767
94	0xbff8459520902c98	-1.5169879219054447
95	0x3ff4405928735dbe	1.265710027704571
96	0xbff6332e496378b4	-1.3874953142872473
97	0x3fcca534250b8803	0.22379161652412458
98	0xbfe8c294060132e6	-0.7737522237090075
99	0x3ff37916fedbb373	1.2170629458807667
100	0xbfd43e969d33d726	-0.3163200888806038
101	0xbff23e0b7c3d2b50	-1.1401476719936063
102	0xc010aabe55c4110c	-4.166741695491748
103	0xbfe542bbb0c35c99	-0.6643961384205738
104	0xbffdf416eb5b3aec	-1.8720921701057547
105	0x400120ed972f5242	2.1410781680408784
106	0x3fc2a11a65c467f5	0.14554147690870392
107	0x3fdeac56e9af5d34	0.4792687685089334
108	0x3fdd4ea578328576	0.45792519319555625
109	0x3ff727afdf1daf9c	1.4471892085520954
110	0xbfeb358eaef16af3	-0.8502877632957663
111	0x40004329c548d3c0	2.032794514927872
112	0xbff87a548515eb17	-1.5298657606751414
113	0xbfd2e58d42aa0a33	-0.2952607298867946
114	0xbff37ed1cd60af30	-1.2184618017735822
115	0x3ffc1b6ac3ee40c0	1.7566936162511837
116	0xbfd22e497fc6c23a	-0.2840751407448213
117	0xbff15c82b5650a48	-1.0850855909090047
118	0xbfd5d483516a6f4b	-0.34109576178319817
119	0xbfddafa1216c05ec	-0.4638445688616162
120	0x3fd9c5a31735c4bf	0.4026878096256716
121	0xbff66071cec675c1	-1.3985460354955281
122	0xbfd208b90c4ab21c	-0.2817824001347462
123	0xc00296507ee69176	-2.323395720874198
124	0xbfed91c31fba86a2	-0.9240432376575038
125	0xc001684a250b82de	-2.1759226698053302
126	0xbfbe20fe86bc4884	-0.11769095220032183
127	0xbfec4a79bf1d2faf	-0.8840912563987241
128	0x40020df3a2a67cac	2.2568123538072395
129	0xbfc39d8210a71f57	-0.1532442647278411
130	0x4003dbc4084e833e	2.4823074959716953
131	0xbfd2b15030ce106b	-0.29207234159571865
132	0xbff7c11da0335d26	-1.484647393974066
133	0xbfd26825278f53e4	-0.2876065145804303
134	0x3fec169e784d8344	0.8777611112273935
135	0xbfa3c0e3d2210cb2	-0.038581008339428804
136	0x3fee76db83a8dc19	0.9520089694477775
137	0xbfc47849266af144	-0.1599208295427933
138	0x3ff1ed1f2b1889d9	1.1203910525733731
139	0xbffdd656f0dd6c9a	-1.8648290070330291
140	0xbffe000bc44f54c2	-1.8750112217287982
141	0xbfd563f29d4b15a6	-0.33422532425569285
142	0xbff3ce6e7940d21a	-1.2378983246281963
143	0xc000cd709fb35cea	-2.1003124691593387
144	0x3fb3a326f8fd0208	0.07670825556579797
145	0xbfe50886afee92df	-0.6572907863779526
146	0x3fe70ba8b5b4a0b4	0.72017322053309
147	0xbff7888829dc9b57	-1.4708329806541849
148	0x3fd356cb82b68204	0.3021725441449521
149	0x400863e2e57f321b	3.048772614425855
150	0x40003902e34c8589	2.0278375394561334
151	0xbff32a80a9d5c7ab	-1.1978766092474682
152	0xbfdfba8c84eac23e	-0.49576104145220146
153	0xc0148248cd0f3195	-5.127230838825558
154	0xbff6175eba9b6787	-1.3807055749261694
155	0xbfeefcc9ad695f71	-0.9683578860230978
156	0xbfd8ea61edf6bc95	-0.38930557478574573
157	0xbf7f15ddd5579048	-0.007589212929335849
158	0xbfde161ce0009c24	-0.47009965777619045
159	0x3ff99adefacf74bd	1.600310306289699
160	0xbff1e41dc22318e6	-1.118192442272226
161	0xbffafa23456b84d0	-1.6860687934607093
162	0xbfd28a0495c21693	-0.2896739447099687
163	0xbfd3402b320254bb	-0.30079154857351015
164	0xbfd22e786c384e86	-0.28408632820467294
165	0x3ffe414162d06f55	1.8909314975671425
166	0xbff1a8ffb66ccdde	-1.103759491536827
167	0xbfd38d41feba1cd2	-0.3054966914718992
168	0xbfeafb8ea78da197	-0.8432076714062074
169	0xbfcdb432105a2de9	-0.2320616321415934
170	0x3fd7f6a48c71ae23	0.37442887988319934
171	0x3ff9f99514fd3e62	1.623433191289131
172	0xbff8a37056eb2f58	-1.5399020571957944
173	0xbfd36f641dc63c8b	-0.303673771931195
174	0xbfcf247088a849f4	-0.24329954788898045
175	0x3fb94fe08b582bd6	0.09887507822001793
176	0xbfff329ba8458fae	-1.9498554776300625
177	0xbfb838e680079f93	-0.09461823106505411
178	0xbfe4a46777be1cd4	-0.645068868515319
179	0xc0001899324b2193	-2.0120109490564544
180	0x3fc76828d85bfff0	0.18286619724676667
181	0x3fef8f99f6aa61b0	0.986279470223101
182	0xbfd316875c3eb310	-0.2982500458554549
183	0xbff5a12ea830a5f7	-1.3518511362002508
184	0xbfd3d55260103749	-0.3098951280706968
185	0xbfe1b421d8796be4	-0.5532387950910302
186	0xbfff1332f9226c49	-1.942187283689025
187	0x3ff8cc8b37d768fa	1.5499374562555759
188	0x3fbd841e1fac9030	0.11529720567028856
189	0x3ffcb4ca08234beb	1.794137985027869
190	0xbfdacfbeac12efcc	-0.41892973713015347
191	0x4003b480adfaaaf9	2.4631360618708382
192	0xbfc46ae44ded41f3	-0.1595120792867558
193	0x400295ed9a38c829	2.3232070969179586
194	0xbff745932e3a81cb	-1.4544860654642544
195	0x3fff717458fd6d7e	1.9651988483591079
196	0xc0005a4a337c6522	-2.044086839898811
197	0xbff4b57d1d2d476f	-1.2943087711068662
198	0x3fe5d8991801ffca	0.6826901883032346
199	0xbfe9dab74b640c60	-0.8079487297512848
200	0xc0017f6def186f45	-2.187221401150881
201	0x3ffe1c07550c497e	1.8818429300486907
202	0x3fe04801bf20d5b9	0.5087898953412867
203	0xbff111bf0e2b8fa3	-1.066832595207395
204	0xc010be25a5561328	-4.18569048250064
205	0xbff153fb83edb1f7	-1.083003535600367
206	0x3fac1dd037c2d47a	0.05491495781590401
207	0xc007ac9f58d4c26c	-2.959288305275825
208	0x3fa0695f841f1846	0.03205393302737085
209	0xc005e779c2cf56d4	-2.7380252093815702
210	0x3fe869e7814cdf56	0.7629277730365895
211	0x3fe9ae22dd8a1cad	0.802506859487854
212	0xbfdfc42c0521bcdd	-0.49634838582183055
213	0x40006ad30d54852e	2.0521603623789337
214	0x3fec2cbcf8d6d7e2	0.8804612026349299
215	0xbfd2b42f60e421d8	-0.29224762403512505
216	0x3fe4eb6d9c889fa7	0.6537387902544552
217	0x3feb19a99a4107d4	0.846882630612749
218	0xbfe2436951320f71	-0.5707289300776052
219	0xc001df1c686853f4	-2.2339409024084436
220	0x3fea32406e9f0384	0.8186342392510686
221	0xbfd4ca61ac454f60	-0.3248523886043042
222	0xc0086d52ab27fd0d	-3.0533803340509906
223	0x3fd088379aea2e16	0.25831403854746904
224	0xbfe246da1cd64763	-0.5711489260886363
225	0x400111d4a7b92233	2.1337063887952126
226	0x3ff55ec16c761cc1	1.335633681943179
227	0x3fdff02337193644	0.4990318334647308
228	0xbf909cc7afc19e55	-0.016223068334879482
229	0x3fe9adac5509692a	0.8024503384470212
230	0xbfe55b30264c5413	-0.6673813579569717
231	0x3fce3b64b1568d4a	0.23618754061781494
232	0x3fdd9c0603917101	0.46264791820955514
233	0xbfe2e16db9829d19	-0.5900181411024362
234	0x3fc2a1309ce2bcd2	0.1455441251796175
235	0xbfe2763aa4043dbe	-0.5769322589348389
236	0xbfcade41adf69e5b	-0.20990773195557008
237	0xbff369ab4b9d9a5a	-1.2132981256233024
238	0x3fc7ea045fcd7854	0.1868291347299783
239	0xbfd8dd7f981c7eee	-0.3885191903554944
240	0xbfde18c31cc7401c	-0.4702613621748257
241	0xbf9cc9ec436734ca	-0.02811402474781203
242	0x3ff473577f6a3fc8	1.2781596161985238
243	0xbfc4594588930c6a	-0.15897435349151873
244	0x3fd56838af21bea8	0.33448617079464293
245	0x3fe8ad1d97940b64	0.7711322746766709
246	0xbff5b982a25c80e0	-1.357790598129263
247	0xbfee4b006c94db45	-0.9466554756862499
248	0x3ff221beab983b84	1.1332384779850324
249	0xbff838c471ba3be9	-1.513859218833881
250	0x3fd5b80e500dd37d	0.33935888116621254
251	0x3fd94a0c65cc12ab	0.3951445573914422
252	0xc00129c6bf08b7ff	-2.1453986095939395
253	0xc00ab52d5ce25a72	-3.3384654289796396
254	0x3fef7724b45db254	0.9832938692830546
255	0xc0189aa40e2c32ae	-6.1510164465404795
